…
[2024-03-16 19:25:45,955] :: INFO :: [utils.data_utils.split_data:31] :: Train split: 80%, Val split: 10%, Test split: 10%
[2024-03-16 19:25:46,469] :: INFO :: [utils.data_utils.split_data:120] :: #Interactions in VALID: 1516
[2024-03-16 19:25:46,469] :: INFO :: [utils.data_utils.split_data:121] :: #Interactions in TEST: 1344
[2024-03-16 19:25:46,534] :: INFO :: [model.TGSRec.__init__:41] :: Aggregation uses attention model
[2024-03-16 19:25:46,547] :: INFO :: [model.TGSRec.__init__:71] :: Using disentangle time encoding
[2024-03-16 19:25:47,979] :: INFO :: [root.build_model:66] :: Model built successfully
[2024-03-16 19:25:47,980] :: INFO :: [root.build_model:67] :: TGRec(
  (node_hist_embed): Embedding(2626, 32)
  (merge_layer): MergeLayer(
    (fc1): Linear(in_features=64, out_features=32, bias=True)
    (fc2): Linear(in_features=32, out_features=32, bias=True)
    (act): ReLU()
  )
  (attn_model_list): ModuleList(
    (0-1): 2 x CrossAttentionModel(
      (ffn): MergeLayer(
        (fc1): Linear(in_features=96, out_features=32, bias=True)
        (fc2): Linear(in_features=32, out_features=32, bias=True)
        (act): ReLU()
      )
      (multi_head_target): MultiHeadAttention(
        (w_qs): Linear(in_features=64, out_features=64, bias=False)
        (w_ks): Linear(in_features=64, out_features=64, bias=False)
        (w_vs): Linear(in_features=64, out_features=64, bias=False)
        (attention): ScaledDotProductAttention(
          (dropout): Dropout(p=0.3, inplace=False)
          (softmax): Softmax(dim=2)
        )
        (layer_norm): LayerNorm((64,), eps=1e-05, elementwise_affine=True)
        (fc): Linear(in_features=64, out_features=64, bias=True)
        (dropout): Dropout(p=0.3, inplace=False)
      )
      (self_attn_model): SelfAttentionModel(
        (ffn): MergeSelfAttnLayer(
          (fc1): Linear(in_features=96, out_features=3840, bias=True)
          (fc2): Linear(in_features=3840, out_features=64, bias=True)
          (act): ReLU()
        )
        (multi_head_target): MultiHeadAttention(
          (w_qs): Linear(in_features=64, out_features=64, bias=False)
          (w_ks): Linear(in_features=64, out_features=64, bias=False)
          (w_vs): Linear(in_features=64, out_features=64, bias=False)
          (attention): ScaledDotProductAttention(
            (dropout): Dropout(p=0.1, inplace=False)
            (softmax): Softmax(dim=2)
          )
          (layer_norm): LayerNorm((64,), eps=1e-05, elementwise_affine=True)
          (fc): Linear(in_features=64, out_features=64, bias=True)
          (dropout): Dropout(p=0.1, inplace=False)
        )
      )
    )
  )
  (time_encoder): DisentangleTimeEncode()
  (affinity_score): MergeLayer(
    (fc1): Linear(in_features=64, out_features=32, bias=True)
    (fc2): Linear(in_features=32, out_features=1, bias=True)
    (act): ReLU()
  )
)
[2024-03-16 19:25:47,981] :: INFO :: [root.build_model:68] :: Number of parameters: 1402177 (trainable: 1402177)
[2024-03-16 19:25:47,981] :: INFO :: [root.build_model:70] :: Loss function: BPR + L2 regularization
[2024-03-16 19:25:47,981] :: INFO :: [root.build_model:71] :: Optimizer: Adam with lr: 0.005 and l2: 0.0001
[2024-03-16 19:25:47,981] :: INFO :: [root.build_model:72] :: Learning rate scheduler: LinearLR
…
